…
hidden = keras.layers.Dropout(0.5)(hidden)
predictions = keras.layers.Dense(80, activation = 'sigmoid')(hidden)
mlp_model = keras.models.Model(input = [x], output = [predictions])
mlp_model.summary()
</code></pre>

<p>And this is the model summary:</p>

<pre><code>____________________________________________________________________________________________________
Layer (type)                     Output Shape          Param #     Connected to                     
====================================================================================================
input_3 (InputLayer)             (None, 4096)          0                                            
____________________________________________________________________________________________________
dense_1 (Dense)                  (None, 512)           2097664     input_3[0][0]                    
____________________________________________________________________________________________________
batchnormalization_1 (BatchNorma (None, 512)           2048        dense_1[0][0]                    
____________________________________________________________________________________________________
dropout_1 (Dropout)              (None, 512)           0           batchnormalization_1[0][0]       
____________________________________________________________________________________________________
dense_2 (Dense)                  (None, 80)            41040       dropout_1[0][0]                  
====================================================================================================
Total params: 2,140,752
Trainable params: 2,139,728
Non-trainable params: 1,024
____________________________________________________________________________________________________
</code></pre>

<p>The size of the input for the BatchNormalization (BN) layer is 512. According to <a href=""https://keras.io/layers/normalization/"" rel=""noreferrer"">Keras documentation</a>, shape of the output for BN layer is same as input which is 512.</p>
…
tax activation function convolution flipped kernel someone help explain happen
141,141,42480111,Model summary in pytorch,"<p>How do I print the summary of a model in PyTorch like the <code>model.summary()</code> method does in Keras:</p>
<pre><code>Model Summary:
____________________________________________________________________________________________________
Layer (type)                     Output Shape          Param #     Connected to                     
====================================================================================================
input_1 (InputLayer)             (None, 1, 15, 27)     0                                            
____________________________________________________________________________________________________
convolution2d_1 (Convolution2D)  (None, 8, 15, 27)     872         input_1[0][0]                    
____________________________________________________________________________________________________
maxpooling2d_1 (MaxPooling2D)    (None, 8, 7, 27)      0           convolution2d_1[0][0]            
____________________________________________________________________________________________________
flatten_1 (Flatten)              (None, 1512)          0           maxpooling2d_1[0][0]             
____________________________________________________________________________________________________
dense_1 (Dense)                  (None, 1)             1513        flatten_1[0][0]                  
====================================================================================================
Total params: 2,385
Trainable params: 2,385
Non-trainable params: 0
</code></pre>",42616812.0,10,3,,2017/2/27 7:35,41.0,2021/5/19 14:38,2021/3/12 11:22,,9067615.0,,5352399.0,,1,204,python|pytorch,164918,903.869,,5,model summary pytorch print summary model pytorch like method kera
…
<p>The problem is that even after the first iteration with batch size 20 the model starts predicting the same embedding for all the images. So when I first do the prediction on the batch every embedding is different. Then I do the fit and predict again and suddenly all the embeddings becomes almost the same for all the images in the batch</p>
<p>Also notice that there is a Lambda layer at the end of the model. It normalizes the output of the net so all the embeddings has a unit length as it was suggested in the face net study.</p>
<p>Can anybody help me out here?</p>
<p>Model summary</p>
<pre><code>    Layer (type)                     Output Shape          Param #     Connected to                     
====================================================================================================
input_1 (InputLayer)             (None, 224, 224, 3)   0                                            
____________________________________________________________________________________________________
convolution2d_1 (Convolution2D)  (None, 112, 112, 64)  9472        input_1[0][0]                    
____________________________________________________________________________________________________
batchnormalization_1 (BatchNormal(None, 112, 112, 64)  128         convolution2d_1[0][0]            
____________________________________________________________________________________________________
maxpooling2d_1 (MaxPooling2D)    (None, 56, 56, 64)    0           batchnormalization_1[0][0]       
____________________________________________________________________________________________________
convolution2d_2 (Convolution2D)  (None, 56, 56, 64)    4160        maxpooling2d_1[0][0]             
____________________________________________________________________________________________________
batchnormalization_2 (BatchNormal(None, 56, 56, 64)    128         convolution2d_2[0][0]            
____________________________________________________________________________________________________
convolution2d_3 (Convolution2D)  (None, 56, 56, 192)   110784      batchnormalization_2[0][0]       
____________________________________________________________________________________________________
batchnormalization_3 (BatchNormal(None, 56, 56, 192)   384         convolution2d_3[0][0]            
____________________________________________________________________________________________________
maxpooling2d_2 (MaxPooling2D)    (None, 28, 28, 192)   0           batchnormalization_3[0][0]       
____________________________________________________________________________________________________
convolution2d_5 (Convolution2D)  (None, 28, 28, 96)    18528       maxpooling2d_2[0][0]             
____________________________________________________________________________________________________
convolution2d_7 (Convolution2D)  (None, 28, 28, 16)    3088        maxpooling2d_2[0][0]             
____________________________________________________________________________________________________
maxpooling2d_3 (MaxPooling2D)    (None, 28, 28, 192)   0           maxpooling2d_2[0][0]             
____________________________________________________________________________________________________
convolution2d_4 (Convolution2D)  (None, 28, 28, 64)    12352       maxpooling2d_2[0][0]             
____________________________________________________________________________________________________
convolution2d_6 (Convolution2D)  (None, 28, 28, 128)   110720      convolution2d_5[0][0]            
____________________________________________________________________________________________________
convolution2d_8 (Convolution2D)  (None, 28, 28, 32)    12832       convolution2d_7[0][0]            
____________________________________________________________________________________________________
convolution2d_9 (Convolution2D)  (None, 28, 28, 32)    6176        maxpooling2d_3[0][0]             
____________________________________________________________________________________________________
merge_1 (Merge)                  (None, 28, 28, 256)   0           convolution2d_4[0][0]            
                                                                   convolution2d_6[0][0]            
                                                                   convolution2d_8[0][0]            
                                                                   convolution2d_9[0][0]            
____________________________________________________________________________________________________
convolution2d_11 (Convolution2D) (None, 28, 28, 96)    24672       merge_1[0][0]                    
____________________________________________________________________________________________________
convolution2d_13 (Convolution2D) (None, 28, 28, 32)    8224        merge_1[0][0]                    
____________________________________________________________________________________________________
maxpooling2d_4 (MaxPooling2D)    (None, 28, 28, 256)   0           merge_1[0][0]                    
____________________________________________________________________________________________________
convolution2d_10 (Convolution2D) (None, 28, 28, 64)    16448       merge_1[0][0]                    
____________________________________________________________________________________________________
convolution2d_12 (Convolution2D) (None, 28, 28, 128)   110720      convolution2d_11[0][0]           
____________________________________________________________________________________________________
convolution2d_14 (Convolution2D) (None, 28, 28, 64)    51264       convolution2d_13[0][0]           
____________________________________________________________________________________________________
convolution2d_15 (Convolution2D) (None, 28, 28, 64)    16448       maxpooling2d_4[0][0]             
____________________________________________________________________________________________________
merge_2 (Merge)                  (None, 28, 28, 320)   0           convolution2d_10[0][0]           
                                                                   convolution2d_12[0][0]           
                                                                   convolution2d_14[0][0]           
                                                                   convolution2d_15[0][0]           
____________________________________________________________________________________________________
convolution2d_16 (Convolution2D) (None, 28, 28, 128)   41088       merge_2[0][0]                    
____________________________________________________________________________________________________
convolution2d_18 (Convolution2D) (None, 28, 28, 32)    10272       merge_2[0][0]                    
____________________________________________________________________________________________________
convolution2d_17 (Convolution2D) (None, 14, 14, 256)   295168      convolution2d_16[0][0]           
____________________________________________________________________________________________________
convolution2d_19 (Convolution2D) (None, 14, 14, 64)    51264       convolution2d_18[0][0]           
____________________________________________________________________________________________________
maxpooling2d_5 (MaxPooling2D)    (None, 14, 14, 320)   0           merge_2[0][0]                    
____________________________________________________________________________________________________
merge_3 (Merge)                  (None, 14, 14, 640)   0           convolution2d_17[0][0]           
                                                                   convolution2d_19[0][0]           
                                                                   maxpooling2d_5[0][0]             
____________________________________________________________________________________________________
convolution2d_21 (Convolution2D) (None, 14, 14, 96)    61536       merge_3[0][0]                    
____________________________________________________________________________________________________
convolution2d_23 (Convolution2D) (None, 14, 14, 32)    20512       merge_3[0][0]                    
____________________________________________________________________________________________________
maxpooling2d_6 (MaxPooling2D)    (None, 14, 14, 640)   0           merge_3[0][0]                    
____________________________________________________________________________________________________
convolution2d_20 (Convolution2D) (None, 14, 14, 256)   164096      merge_3[0][0]                    
____________________________________________________________________________________________________
convolution2d_22 (Convolution2D) (None, 14, 14, 192)   166080      convolution2d_21[0][0]           
____________________________________________________________________________________________________
convolution2d_24 (Convolution2D) (None, 14, 14, 64)    51264       convolution2d_23[0][0]           
____________________________________________________________________________________________________
convolution2d_25 (Convolution2D) (None, 14, 14, 128)   82048       maxpooling2d_6[0][0]             
____________________________________________________________________________________________________
merge_4 (Merge)                  (None, 14, 14, 640)   0           convolution2d_20[0][0]           
                                                                   convolution2d_22[0][0]           
                                                                   convolution2d_24[0][0]           
                                                                   convolution2d_25[0][0]           
____________________________________________________________________________________________________
convolution2d_27 (Convolution2D) (None, 14, 14, 112)   71792       merge_4[0][0]                    
____________________________________________________________________________________________________
convolution2d_29 (Convolution2D) (None, 14, 14, 32)    20512       merge_4[0][0]                    
____________________________________________________________________________________________________
maxpooling2d_7 (MaxPooling2D)    (None, 14, 14, 640)   0           merge_4[0][0]                    
____________________________________________________________________________________________________
convolution2d_26 (Convolution2D) (None, 14, 14, 224)   143584      merge_4[0][0]                    
____________________________________________________________________________________________________
convolution2d_28 (Convolution2D) (None, 14, 14, 224)   226016      convolution2d_27[0][0]           
____________________________________________________________________________________________________
convolution2d_30 (Convolution2D) (None, 14, 14, 64)    51264       convolution2d_29[0][0]           
____________________________________________________________________________________________________
convolution2d_31 (Convolution2D) (None, 14, 14, 128)   82048       maxpooling2d_7[0][0]             
____________________________________________________________________________________________________
merge_5 (Merge)                  (None, 14, 14, 640)   0           convolution2d_26[0][0]           
                                                                   convolution2d_28[0][0]           
                                                                   convolution2d_30[0][0]           
                                                                   convolution2d_31[0][0]           
____________________________________________________________________________________________________
convolution2d_33 (Convolution2D) (None, 14, 14, 128)   82048       merge_5[0][0]                    
____________________________________________________________________________________________________
convolution2d_35 (Convolution2D) (None, 14, 14, 32)    20512       merge_5[0][0]                    
____________________________________________________________________________________________________
maxpooling2d_8 (MaxPooling2D)    (None, 14, 14, 640)   0           merge_5[0][0]                    
____________________________________________________________________________________________________
convolution2d_32 (Convolution2D) (None, 14, 14, 192)   123072      merge_5[0][0]                    
____________________________________________________________________________________________________
convolution2d_34 (Convolution2D) (None, 14, 14, 256)   295168      convolution2d_33[0][0]           
____________________________________________________________________________________________________
convolution2d_36 (Convolution2D) (None, 14, 14, 64)    51264       convolution2d_35[0][0]           
____________________________________________________________________________________________________
convolution2d_37 (Convolution2D) (None, 14, 14, 128)   82048       maxpooling2d_8[0][0]             
____________________________________________________________________________________________________
merge_6 (Merge)                  (None, 14, 14, 640)   0           convolution2d_32[0][0]           
                                                                   convolution2d_34[0][0]           
                                                                   convolution2d_36[0][0]           
                                                                   convolution2d_37[0][0]           
____________________________________________________________________________________________________
convolution2d_39 (Convolution2D) (None, 14, 14, 144)   92304       merge_6[0][0]                    
____________________________________________________________________________________________________
convolution2d_41 (Convolution2D) (None, 14, 14, 32)    20512       merge_6[0][0]                    
____________________________________________________________________________________________________
maxpooling2d_9 (MaxPooling2D)    (None, 14, 14, 640)   0           merge_6[0][0]                    
____________________________________________________________________________________________________
convolution2d_38 (Convolution2D) (None, 14, 14, 160)   102560      merge_6[0][0]                    
____________________________________________________________________________________________________
convolution2d_40 (Convolution2D) (None, 14, 14, 288)   373536      convolution2d_39[0][0]           
____________________________________________________________________________________________________
convolution2d_42 (Convolution2D) (None, 14, 14, 64)    51264       convolution2d_41[0][0]           
____________________________________________________________________________________________________
convolution2d_43 (Convolution2D) (None, 14, 14, 128)   82048       maxpooling2d_9[0][0]             
____________________________________________________________________________________________________
merge_7 (Merge)                  (None, 14, 14, 640)   0           convolution2d_38[0][0]           
                                                                   convolution2d_40[0][0]           
                                                                   convolution2d_42[0][0]           
                                                                   convolution2d_43[0][0]           
____________________________________________________________________________________________________
convolution2d_44 (Convolution2D) (None, 14, 14, 160)   102560      merge_7[0][0]                    
____________________________________________________________________________________________________
convolution2d_46 (Convolution2D) (None, 14, 14, 64)    41024       merge_7[0][0]                    
____________________________________________________________________________________________________
convolution2d_45 (Convolution2D) (None, 7, 7, 256)     368896      convolution2d_44[0][0]           
____________________________________________________________________________________________________
convolution2d_47 (Convolution2D) (None, 7, 7, 128)     204928      convolution2d_46[0][0]           
____________________________________________________________________________________________________
maxpooling2d_10 (MaxPooling2D)   (None, 7, 7, 640)     0           merge_7[0][0]                    
____________________________________________________________________________________________________
merge_8 (Merge)                  (None, 7, 7, 1024)    0           convolution2d_45[0][0]           
                                                                   convolution2d_47[0][0]           
                                                                   maxpooling2d_10[0][0]            
____________________________________________________________________________________________________
convolution2d_49 (Convolution2D) (None, 7, 7, 192)     196800      merge_8[0][0]                    
____________________________________________________________________________________________________
convolution2d_51 (Convolution2D) (None, 7, 7, 48)      49200       merge_8[0][0]                    
____________________________________________________________________________________________________
maxpooling2d_11 (MaxPooling2D)   (None, 7, 7, 1024)    0           merge_8[0][0]                    
____________________________________________________________________________________________________
convolution2d_48 (Convolution2D) (None, 7, 7, 384)     393600      merge_8[0][0]                    
____________________________________________________________________________________________________
convolution2d_50 (Convolution2D) (None, 7, 7, 384)     663936      convolution2d_49[0][0]           
____________________________________________________________________________________________________
convolution2d_52 (Convolution2D) (None, 7, 7, 128)     153728      convolution2d_51[0][0]           
____________________________________________________________________________________________________
convolution2d_53 (Convolution2D) (None, 7, 7, 128)     131200      maxpooling2d_11[0][0]            
____________________________________________________________________________________________________
merge_9 (Merge)                  (None, 7, 7, 1024)    0           convolution2d_48[0][0]           
                                                                   convolution2d_50[0][0]           
                                                                   convolution2d_52[0][0]           
                                                                   convolution2d_53[0][0]           
____________________________________________________________________________________________________
convolution2d_55 (Convolution2D) (None, 7, 7, 192)     196800      merge_9[0][0]                    
____________________________________________________________________________________________________
convolution2d_57 (Convolution2D) (None, 7, 7, 48)      49200       merge_9[0][0]                    
____________________________________________________________________________________________________
maxpooling2d_12 (MaxPooling2D)   (None, 7, 7, 1024)    0           merge_9[0][0]                    
____________________________________________________________________________________________________
convolution2d_54 (Convolution2D) (None, 7, 7, 384)     393600      merge_9[0][0]                    
____________________________________________________________________________________________________
convolution2d_56 (Convolution2D) (None, 7, 7, 384)     663936      convolution2d_55[0][0]           
____________________________________________________________________________________________________
convolution2d_58 (Convolution2D) (None, 7, 7, 128)     153728      convolution2d_57[0][0]           
____________________________________________________________________________________________________
convolution2d_59 (Convolution2D) (None, 7, 7, 128)     131200      maxpooling2d_12[0][0]            
____________________________________________________________________________________________________
merge_10 (Merge)                 (None, 7, 7, 1024)    0           convolution2d_54[0][0]           
                                                                   convolution2d_56[0][0]           
                                                                   convolution2d_58[0][0]           
                                                                   convolution2d_59[0][0]           
____________________________________________________________________________________________________
averagepooling2d_1 (AveragePoolin(None, 1, 1, 1024)    0           merge_10[0][0]                   
____________________________________________________________________________________________________
flatten_1 (Flatten)              (None, 1024)          0           averagepooling2d_1[0][0]         
____________________________________________________________________________________________________
dense_1 (Dense)                  (None, 128)           131200      flatten_1[0][0]                  
____________________________________________________________________________________________________
lambda_1 (Lambda)                (None, 128)           0           dense_1[0][0]                    
====================================================================================================
Total params: 7456944
____________________________________________________________________________________________________
None
</code></pre>",,4,13,,2016/12/10 13:18,12.0,2021/7/2 12:21,2021/7/2 12:19,,1021819.0,,2439854.0,,1,24,neural-network|tensorflo
…
/usr/local/lib/python2.7/dist-packages/theano/sandbox/cuda/__init__.py:600: UserWarning: Your cuDNN version is more recent than the one Theano officially supports. If you see any problems, try updating Theano or downgrading cuDNN to version 5.
  warnings.warn(warn)
____________________________________________________________________________________________________
Layer (type)                     Output Shape          Param #     Connected to                     
====================================================================================================
convolution2d_1 (Convolution2D)  (None, 16, 16, 256)   2560        convolution2d_input_1[0][0]      
____________________________________________________________________________________________________
maxpooling2d_1 (MaxPooling2D)    (None, 8, 8, 256)     0           convolution2d_1[0][0]            
____________________________________________________________________________________________________
convolution2d_2 (Convolution2D)  (None, 8, 8, 512)     1180160     maxpooling2d_1[0][0]             
____________________________________________________________________________________________________
maxpooling2d_2 (MaxPooling2D)    (None, 4, 4, 512)     0           convolution2d_2[0][0]            
____________________________________________________________________________________________________
convolution2d_3 (Convolution2D)  (None, 4, 4, 1024)    4719616     maxpooling2d_2[0][0]             
____________________________________________________________________________________________________
convolution2d_4 (Convolution2D)  (None, 4, 4, 1024)    9438208     convolution2d_3[0][0]            
____________________________________________________________________________________________________
convolution2d_5 (Convolution2D)  (None, 4, 4, 1024)    9438208     convolution2d_4[0][0]            
____________________________________________________________________________________________________
convolution2d_6 (Convolution2D)  (None, 4, 4, 1024)    9438208     convolution2d_5[0][0]            
____________________________________________________________________________________________________
convolution2d_7 (Convolution2D)  (None, 4, 4, 1024)    9438208     convolution2d_6[0][0]            
____________________________________________________________________________________________________
convolution2d_8 (Convolution2D)  (None, 4, 4, 1024)    9438208     convolution2d_7[0][0]            
____________________________________________________________________________________________________
convolution2d_9 (Convolution2D)  (None, 4, 4, 1024)    9438208     convolution2d_8[0][0]            
____________________________________________________________________________________________________
convolution2d_10 (Convolution2D) (None, 4, 4, 1024)    9438208     convolution2d_9[0][0]            
____________________________________________________________________________________________________
convolution2d_11 (Convolution2D) (None, 4, 4, 1024)    9438208     convolution2d_10[0][0]           
____________________________________________________________________________________________________
convolution2d_12 (Convolution2D) (None, 4, 4, 1024)    9438208     convolution2d_11[0][0]           
____________________________________________________________________________________________________
convolution2d_13 (Convolution2D) (None, 4, 4, 1024)    9438208     convolution2d_12[0][0]           
____________________________________________________________________________________________________
convolution2d_14 (Convolution2D) (None, 4, 4, 1024)    9438208     convolution2d_13[0][0]           
____________________________________________________________________________________________________
convolution2d_15 (Convolution2D) (None, 4, 4, 1024)    9438208     convolution2d_14[0][0]           
____________________________________________________________________________________________________
convolution2d_16 (Convolution2D) (None, 4, 4, 1024)    9438208     convolution2d_15[0][0]           
____________________________________________________________________________________________________
convolution2d_17 (Convolution2D) (None, 4, 4, 1024)    9438208     convolution2d_16[0][0]           
____________________________________________________________________________________________________
convolution2d_18 (Convolution2D) (None, 4, 4, 1024)    9438208     convolution2d_17[0][0]           
____________________________________________________________________________________________________
convolution2d_19 (Convolution2D) (None, 4, 4, 1024)    9438208     convolution2d_18[0][0]           
____________________________________________________________________________________________________
convolution2d_20 (Convolution2D) (None, 4, 4, 1024)    9438208     convolution2d_19[0][0]           
____________________________________________________________________________________________________
convolution2d_21 (Convolution2D) (None, 4, 4, 1024)    9438208     convolution2d_20[0][0]           
____________________________________________________________________________________________________
convolution2d_22 (Convolution2D) (None, 4, 4, 1024)    9438208     convolution2d_21[0][0]           
____________________________________________________________________________________________________
convolution2d_23 (Convolution2D) (None, 4, 4, 1024)    9438208     convolution2d_22[0][0]           
____________________________________________________________________________________________________
convolution2d_24 (Convolution2D) (None, 4, 4, 1024)    9438208     convolution2d_23[0][0]           
____________________________________________________________________________________________________
maxpooling2d_3 (MaxPooling2D)    (None, 2, 2, 1024)    0           convolution2d_24[0][0]           
____________________________________________________________________________________________________
convolution2d_25 (Convolution2D) (None, 2, 2, 256)     2359552     maxpooling2d_3[0][0]             
____________________________________________________________________________________________________
convolution2d_26 (Convolution2D) (None, 2, 2, 32)      73760       convolution2d_25[0][0]           
____________________________________________________________________________________________________
maxpooling2d_4 (MaxPooling2D)    (None, 1, 1, 32)      0           convolution2d_26[0][0]           
____________________________________________________________________________________________________
flatten_1 (Flatten)              (None, 32)            0           maxpooling2d_4[0][0]             
____________________________________________________________________________________________________
dense_1 (Dense)                  (None, 4)             132         flatten_1[0][0]                  
____________________________________________________________________________________________________
dense_2 (Dense)                  (None, 1)             5           dense_1[0][0]                    
====================================================================================================
Total params: 206538153
____________________________________________________________________________________________________
None
Thu Oct  6 09:05:42 2016       
+------------------------------------------------------+                       
| NVIDIA-SMI 352.63     Driver Version: 352.63         |                       
…
model.add(Embedding(max_words, 1152, input_length=max_len, weights=[embeddings]))
model.add(BatchNormalization())
model.add(Activation('tanh'))
model.add(Dropout(0.5))
model.add(Bidirectional(LSTM(32)))
model.add(BatchNormalization())
model.add(Activation('tanh'))
model.add(Dropout(0.5))
model.add(Dense(1, activation='sigmoid'))
model.summary()
</code></pre>
<p>And the model summary is</p>
<pre><code>Model: &quot;sequential_1&quot;
_________________________________________________________________
Layer (type)                 Output Shape              Param #   
=================================================================
embedding_1 (Embedding)      (None, 1152, 1152)        278396928 
_________________________________________________________________
batch_normalization_1 (Batch (None, 1152, 1152)        4608      
_________________________________________________________________
activation_1 (Activation)    (None, 1152, 1152)        0         
_________________________________________________________________
dropout_1 (Dropout)          (None, 1152, 1152)        0         
_________________________________________________________________
bidirectional_1 (Bidirection (None, 64)                303360    
_________________________________________________________________
batch_normalization_2 (Batch (None, 64)                256       
_________________________________________________________________
activation_2 (Activation)    (None, 64)                0         
_________________________________________________________________
dropout_2 (Dropout)          (None, 64)                0         
_________________________________________________________________
dense_1 (Dense)              (None, 1)                 65        
=================================================================
Total params: 278,705,217
Trainable params: 278,702,785
Non-trainable params: 2,432
</code></pre>",62949137.0,2,0,,2020/7/17 6:28,9.0,2021/6/24 18:02,2020/10/6 16:44,,10375049.0,,10097229.0,,1,14,python-3.x|tensorflow|machine-learning|keras|nlp,4521,51.2209,,3,add attention layer bi lstm develop bi lstm model want add attention layer get add current code model model summary
…
    Conv2D(32,3, activation='relu', input_shape=(48,48,1)),
    BatchNormalization(),
    MaxPooling2D(pool_size=(3, 3)),
  
    Flatten(),
    Dense(512, activation='relu'),
    Dense(2,activation='softmax')
])
model.compile(optimizer='adam',
              loss='categorical_crossentropy',
              metrics=['accuracy'])


model.summary()

Model: &quot;sequential_4&quot;
_________________________________________________________________
Layer (type)                 Output Shape              Param #   
=================================================================
conv2d_6 (Conv2D)            (None, 46, 46, 32)        320       
_________________________________________________________________
batch_normalization_4 (Batch (None, 46, 46, 32)        128       
_________________________________________________________________
max_pooling2d_6 (MaxPooling2 (None, 15, 15, 32)        0         
_________________________________________________________________
flatten_4 (Flatten)          (None, 7200)              0         
_________________________________________________________________
dense_8 (Dense)              (None, 512)               3686912   
_________________________________________________________________
dense_9 (Dense)              (None, 2)                 1026      
=================================================================
Total params: 3,688,386
Trainable params: 3,688,322
Non-trainable params: 64
_________________________________________________________________


epochs = 15
steps_per_epoch = train_data_gen.n//train_data_gen.batch_size
validation_steps = val_data_gen.n//val_data_gen.batch_size



history = model.fit(
    x=train_data_gen,
    steps_per_epoch=steps_per_epoch,
…
